…
     keras.callbacks.ModelCheckpoint(model_path,monitor='val_loss', save_best_only=True, mode='min', verbose=0)]\n          )\n\n# list all data in history\nprint(history.history.keys())","dateUpdated":"2018-04-24T17:54:30+0000","dateFinished":"2018-04-24T18:00:25+0000","dateStarted":"2018-04-24T17:54:30+0000","results":{"code":"SUCCESS","msg":[{"type":"TEXT","data":"_________________________________________________________________\nLayer (type)                 Output Shape              Param #   \n=================================================================\nlstm_3 (LSTM)                (None, 50, 100)           50400     \n_________________________________________________________________\ndropout_3 (Dropout)          (None, 50, 100)           0         \n_________________________________________________________________\nlstm_4 (LSTM)                (None, 50)                30200     \n_________________________________________________________________\ndropout_4 (Dropout)          (None, 50)                0         \n_________________________________________________________________\ndense_2 (Dense)              (None, 1)                 51        \n_________________________________________________________________\nactivation_1 (Activation)    (None, 1)                 0         \n=================================================================\nTotal params: 80,651\nTrainable params: 80,651\nNon-trainable params: 0\n_________________________________________________________________\nNone\nTrain on 14849 samples, validate on 782 samples\nEpoch 1/5\n - 71s - loss: 5382.4401 - mean_absolute_error: 55.8606 - r2_keras: -9.3107e-01 - val_loss: 3399.3130 - val_mean_abs
…
